testdata/iris_nn.onnx (onnx, 2467 bytes, 4 tensors)

fc1.weight f4 [64, 4]
000000 19 07 f9 ba d5 99 98 3d e0 ba a6 be 3f 7a 00 3f
       -0.0018999308 0.07451216 -0.3256445 0.5018653
000010 ff ce 3f 3e d3 29 8b 3e f4 c9 10 be 04 8d f8 3e
       0.18731306 0.27180347 -0.14139539 0.48545086
000020 81 c7 e1 be 00 ce 98 3e ff f3 e8 3e 02 15 82 3d
       -0.44097522 0.29844666 0.45498654 0.06351663
000030 de 03 3b be 73 99 d5 be 52 e4 ea bd f9 51 d4 3e
       -0.18263194 -0.41718635 -0.1146933 0.4146879
000040 98 1c 00 3c 63 88 f6 bd de 01 cb 3e 73 76 96 3e
       0.007819317 -0.120377325 0.39649862 0.29387245
000050 19 09 ec 3e 14 2c b8 bd fd da f8 be 39 a4 5c be
       0.4610069 -0.08992782 -0.48604575 -0.21547021
000060 e0 8e e0 3e 7a 0e ca be 8d cd 91 3e 4f b8 f5 3e
       0.43859005 -0.3946417 0.28477135 0.4799218
000070 7c 84 2f 3e c0 7a 5c 3e d0 81 e2 be bc c3 e1 be
       0.17140383 0.215312 -0.44239664 -0.44094646
000080 2e 9e f6 be 77 7f e3 3c 71 a6 df 3d 46 4f 69 be
       -0.48167557 0.02777074 0.10920418 -0.22784147
000090 03 5b 67 be 81 10 5b 3e 9c 21 09 be e7 bf 33 3e
       -0.22593312 0.21393014 -0.13391727 0.17553674
0000a0 7d 83 d7 bd 97 8d 9d 3d d4 c3 8e be c8 8b b9 3e
       -0.10523126 0.07693022 -0.2788378 0.36239457
0000b0 96 60 49 be 38 bb 9c 3e 6a 08 fc 3c 8d 54 83 be
       -0.19665751 0.30611587 0.03076573 -0.25650445
0000c0 84 63 8a 3c af af 8d 3b 0c 2e 02 bf 6f c3 98 3d
       0.016893156 0.0043239216 -0.5085151 0.07459151
0000d0 b2 f7 c8 be 7c 29 dc 3d 2b 9e 8d bd c5 9c 4a be
       -0.39251477 0.107501 -0.06914934 -0.19786365
0000e0 13 05 d5 3e e7 41 95 be 3d c0 84 be 64 0f dd be
       0.41605434 -0.29151842 -0.25927916 -0.43175805
0000f0 ac 62 1c 3e 10 76 f9 bd c1 45 89 3e 31 1f d2 be
       0.15272015 -0.12180722 0.2681103 -0.41039422
000100 db c2 f5 3e 89 e9 89 be 80 ae df 3e 73 89 75 bc
       0.48000225 -0.26935986 0.4368782 -0.014986384
000110 ea 68 e4 be d7 fd 99 3d dc 55 fe bd a0 e0 66 3e
       -0.44611293 0.07519119 -0.1241872 0.22546625
000120 1d 81 bc 3e 26 f4 8d be 9b 59 a3 3e 94 52 68 be
       0.36817256 -0.27725333 0.319043 -0.22687751
000130 0b 0a 94 3e 11 1f 1f 3e 53 87 6e bd 23 5a d9 3e
       0.28913912 0.15539195 -0.058234524 0.4245158
000140 3b 74 42 be 00 9c 83 3d d1 8f 8a 3e b6 df ba 3e
       -0.18989651 0.06426239 0.27062848 0.36498803
000150 a5 31 dc be c6 ed b4 3e 1f 27 87 be e4 37 dc 3e
       -0.43006626 0.35337657 -0.26397035 0.4301139
000160 32 88 e9 3d c7 3c e7 be f1 9e 82 3e 7d 0a 03 3e
       0.1140293 -0.45163557 0.25511888 0.1279697
000170 3c 3e 2c be 16 ae fb be 0e 01 be 3d bd b3 48 be
       -0.16820616 -0.49156255 0.09277545 -0.19599815
000180 d5 bd d8 3e b5 6b 46 3e df 8c 54 bd b5 e6 27 3e
       0.4233233 0.19377024 -0.051892158 0.16396601
000190 d4 48 66 be bf bf aa be 03 8b f2 be 09 20 88 bc
       -0.22488719 -0.33349416 -0.47371683 -0.016616838
0001a0 c0 60 de 3e b1 0e 49 be c8 40 5a 3e c3 87 d3 be
       0.4343319 -0.1963451 0.21313775 -0.41314515
0001b0 b7 cf 97 be 1a 87 de be 4b 1a 49 be f5 a1 af be
       -0.2965066 -0.4346245 -0.19638936 -0.3430325
0001c0 74 a4 dd 3e cb 25 e5 3e 1e aa bb be a4 74 f9 3c
       0.4328953 0.44755396 -0.36653227 0.030451126
0001d0 9d f5 be be 7f 2e 96 3e 58 30 08 be 57 c1 ae 3e
       -0.37296763 0.2933235 -0.13299692 0.34131882
0001e0 7a 3f 35 be 31 1d 90 bd 2c 32 52 be 46 31 e5 3d
       -0.17699996 -0.07036818 -0.20526952 0.11191039
0001f0 40 e2 60 be 28 31 6c be 94 da f3 3e 3c cd 9f be
       -0.21961308 -0.23065627 0.476277 -0.3121127
000200 57 ad c7 3e 0a 27 71 be 1d 9f 40 3e 4c 77 e0 be
       0.38999435 -0.23550048 0.18810697 -0.43841016
000210 c3 6b ea 3e 54 35 78 be 82 48 8c 3e bc 10 d4 3e
       0.4578534 -0.24239093 0.2739907 0.41419017
000220 e2 4d b4 3e e1 10 83 3e 41 83 58 be be 0b 55 bd
       0.3521567 0.25598815 -0.2114382 -0.05201315
000230 67 95 94 be 96 80 c9 3e 9c 53 4d 3e b3 58 a5 3e
       -0.29020235 0.39355916 0.20051426 0.32294235
000240 fe 79 80 3e 6b b7 b1 be c0 32 70 3e e1 38 df bd
       0.25093073 -0.3471025 0.2345686 -0.10899521
000250 95 f8 10 be 18 34 bd 3e 2a 1a a8 bd 0a f2 10 3d
       -0.14157327 0.36953807 -0.082081154 0.035387076
000260 a8 a2 8c 3e c1 c4 c4 be 60 de c8 3e 52 55 e7 be
       0.27467847 -0.3843136 0.3923216 -0.45182282
000270 52 fb aa 3e 7d 3f ee 3e 8b 98 68 be fb 36 a0 3d
       0.33394867 0.46532813 -0.2271444 0.07822987
000280 63 19 32 be 5c 88 d6 be b4 d8 b8 be df 00 ae 3d
       -0.17392497 -0.4190091 -0.3610283 0.0849626
000290 99 e0 48 be 25 78 cd be 4a b0 38 be 9c b2 6c be
       -0.19616927 -0.40130726 -0.18035999 -0.23115009
0002a0 aa da 9c 3d 2f 55 e9 3e 19 06 07 bf 67 13 88 be
       0.07658894 0.45572802 -0.5274368 -0.26577303
0002b0 90 36 cf 3e 2e 88 67 3e 64 9d 47 be 08 a7 c1 bd
       0.40471315 0.22610542 -0.19493634 -0.09455687
0002c0 a5 57 22 be 41 6e 8f bc bc 7f 04 bf c9 67 99 be
       -0.15853746 -0.017508628 -0.5175741 -0.29961994
0002d0 5c 62 93 3e 61 4d 01 bf e5 f1 ba bd d0 2a 45 3d
       0.2878598 -0.50508696 -0.09128169 0.048136532
0002e0 16 9b de 3c 37 93 db 3e 4d 82 21 be 29 54 d7 be
       0.02717356 0.42885754 -0.15772362 -0.42056397
0002f0 bb ad da be 51 a6 32 3d ad 0b ea 3d 6b 04 cf bc
       -0.4271067 0.043615643 0.11428008 -0.025270661
000300 02 3b 40 3e 1a 07 c6 be ec ce ec 3d fd 6f 8f be
       0.1877251 -0.38677293 0.11562905 -0.28015128
000310 8b a4 9f be 32 58 c3 be de e8 8a 3e 0a 49 ab be
       -0.31180224 -0.38153225 0.2713079 -0.33454162
000320 16 6b 93 be c0 90 00 be e5 e2 d8 3d 45 ad 52 3e
       -0.28792638 -0.12555218 0.10590152 0.2057391
000330 2c c9 0f be de 87 89 3e 43 55 cb be e2 6d 55 3c
       -0.14041585 0.2686147 -0.39713487 0.013026686
000340 b8 0f 8a 3c 80 3a d7 3e 96 3f 0f be 77 85 94 3d
       0.016853198 0.4203682 -0.139891 0.07252019
000350 ee 21 d4 3e ff c9 3c 3e 40 92 c1 3e 4c 00 15 3e
       0.41432136 0.1843643 0.37806892 0.14550894
000360 9b de 97 be 8b fc 54 bd 94 09 dc bc 64 00 d1 be
       -0.29662022 -0.051998656 -0.026860036 -0.4082061
000370 e5 80 27 3d 5a 5b 7b 3e ae f5 51 be 1d 92 2e 3e
       0.040894408 0.24546567 -0.20503876 0.17047925
000380 a7 30 db be c3 1c b8 be d4 8f 1d 3e ff 63 b7 3e
       -0.42810556 -0.35959443 0.15386897 0.35818478
000390 66 4b 7d 3e 6a f8 86 bc 46 5f 0d 3e 46 1f ca be
       0.24735793 -0.016475875 0.13805875 -0.39476985
0003a0 cd a5 e8 3e e5 35 a7 be f7 ba 55 3e 41 bb ce be
       0.45438996 -0.32658306 0.20872103 -0.40377238
0003b0 10 9d 7e 3e 83 d7 8b be 4b cd af be d3 4c 4e be
       0.24864602 -0.2731286 -0.34336314 -0.20146494
0003c0 c5 41 c2 3e c2 4d 60 3d d6 b2 86 3e bc 9a d7 be
       0.37940803 0.054761656 0.26308316 -0.4211024
0003d0 2d 14 ea 3c fc 14 d8 be 38 9c ac bd f0 a8 e0 3e
       0.028574074 -0.4220351 -0.08428234 0.4387889
0003e0 0d 3f b0 be db 12 de 3e 56 13 af 3e 89 64 4a be
       -0.34423104 0.4337376 0.3419444 -0.19764914
0003f0 17 a5 c8 be 26 55 c5 bd 9c 4a 6c be 1a 52 25 3e
       -0.39188454 -0.096353814 -0.23075336 0.161446

fc1.bias f4 [64]
000000 47 e3 de 3e eb 29 ac be dc 59 c2 3e 53 bc 40 be
       0.43532774 -0.3362573 0.37959182 -0.1882184
000010 79 c0 8d 3e 0a c5 b3 3d a4 80 c2 3e 70 c0 af be
       0.27685907 0.087778166 0.3798877 -0.34326506
000020 62 e8 2f 3e b8 57 98 be f1 49 4e 3e 35 0d b8 3d
       0.17178491 -0.29754424 0.20145394 0.08986894
000030 42 01 7f be 32 33 d8 3e 1b c8 15 be bb 23 db 3d
       -0.24902824 0.4222656 -0.14627115 0.107001744
000040 fe a5 9e 3e 83 05 8a 3d ef 8d 89 3e dd 29 1b 3d
       0.30986017 0.067393325 0.268661 0.03788172
000050 a1 00 a6 bd bf 5b 01 3d 05 47 3b 3e ca 78 d4 bd
       -0.08105589 0.031581637 0.1828881 -0.10374601
000060 60 2f c5 be df c2 c8 be f0 4a cd be ab 4e 9e be
       -0.38512707 -0.39211175 -0.40096235 -0.30919394
000070 0f a5 7a be da a6 d5 3e e9 de 93 be e8 70 83 3d
       -0.24477027 0.4172886 -0.28881004 0.064180195
000080 08 77 4b be dc ed f2 3d e9 f6 07 be 2f b0 8a be
       -0.19869626 0.11861774 -0.13277782 -0.27087542
000090 69 d4 d1 3e d0 70 8c 3e 0b cd 13 3e 44 5b 0c 3d
       0.4098237 0.2742982 0.14433686 0.034266725
0000a0 f6 2c 03 be 2f 9b 98 3e 07 78 d7 bd df 6f 9a bd
       -0.1281012 0.29805896 -0.1052094 -0.07540869
0000b0 10 eb dd 3e 53 dc dd bd c7 a8 ec 3e 94 f6 10 be
       0.433434 -0.10833039 0.46222517 -0.14156562
0000c0 27 fb 0d be 5d 20 f1 bd 2f 4f fe be 2b 4e fc be
       -0.13865338 -0.11773751 -0.49669787 -0.49278387
0000d0 07 e8 38 be 4d d5 0e 3e 9d 2f 2e 3d 33 88 b6 3e
       -0.18057261 0.13948555 0.042525876 0.35650787
0000e0 aa 6e 2d be 9b da 74 3e cb d6 34 3c 7b 41 88 be
       -0.16936746 0.23911516 0.011037539 -0.26612458
0000f0 b4 b8 99 3e 01 e2 b2 bd f9 b8 bf 3e 77 e6 87 bd
       0.3002373 -0.08734513 0.3744581 -0.066357546

fc2.weight f4 [3, 64]
000000 b6 a8 56 bd 6c 8e fd 3d 2f ed ff bd 13 2d 33 3d
       -0.05240699 0.123806804 -0.12496411 0.043744158
000010 0d a5 ff bd 5d b2 c4 3d 55 1b 46 b8 5c 47 3a 3e
       -0.12482653 0.096043326 -4.7232334e-05 0.18191284
000020 04 9e 96 3d 23 d2 b3 3d 6d f5 5a bc e3 16 a8 3d
       0.07354358 0.08780315 -0.013364178 0.0820749
000030 0e 16 0b 3e 77 d9 6e 3d 6d 13 68 3d 2d fa 76 3d
       0.13582632 0.05831286 0.05665915 0.06029718
000040 eb 09 9a bd 16 78 d2 3d 4b a0 71 bd 61 80 e6 3d
       -0.07521423 0.10276811 -0.058990758 0.11254955
000050 c7 f0 47 be fa ee 85 bc ee ea 5b be 70 56 cc bd
       -0.19525443 -0.016349304 -0.21476337 -0.09977424
000060 a8 3b ad bd 71 37 c3 3d 79 07 a3 3d cd ac a1 bd
       -0.08458644 0.09532059 0.0796041 -0.07894287
000070 60 ec 42 3e d5 4d d5 3c 3d ab 2b bc 59 b8 4c be
       0.19035482 0.02603809 -0.010477838 -0.19992198
000080 06 40 80 bd ce 1a ae bc 98 55 0a 3e dd 41 a5 3a
       -0.062622115 -0.021253016 0.13509214 0.001260813
000090 4d 3d 99 bd 94 03 c3 3d be 9d b4 bd 52 e8 36 3e
       -0.07482395 0.09522167 -0.088191494 0.1786206
0000a0 6d 54 cf bd 0b 6e 87 bd 8b 1e 50 3e a1 f4 3a 3e
       -0.10123525 -0.06612786 0.20324151 0.18257381
0000b0 e8 0e 28 3e d2 a0 95 bd f1 14 24 3e 39 f3 8d 3d
       0.16411936 -0.07306065 0.16023614 0.06931157
0000c0 aa 94 5c 3d e4 93 d0 bd 58 b0 14 be 1f 3c e1 3d
       0.053852715 -0.10184458 -0.14520395 0.10997795
0000d0 fd 1c 99 3b 90 bc 49 3d a9 a1 e0 3c b1 50 18 3e
       0.004672645 0.049252093 0.027420836 0.14874531
0000e0 6a 54 10 be c8 1c 0a 3e 6f e3 e4 bd 1b 10 a1 3d
       -0.14094701 0.13487542 -0.11176192 0.078644
0000f0 67 61 bf bd bd ce a4 bd ee 0a 67 bd 6d 60 78 bd
       -0.0934475 -0.08047245 -0.056406908 -0.060638834
000100 a4 bc ce 3b d5 e8 b3 3d 80 9e a8 bd 30 6c 67 bc
       0.006309109 0.087846436 -0.082333565 -0.014124915
000110 b4 62 dc bd de 4b 79 3c 66 4b c4 3d 11 74 55 bd
       -0.107610136 0.015215842 0.095846936 -0.052112643
000120 eb 22 9e bc 50 dc 6d 3d 3e a8 5c 3d c9 f8 79 3c
       -0.01930376 0.058071434 0.053871386 0.015257069
000130 2d d1 c4 3d 0b bd 83 bd 4f cf 0d bd bd 6b 0b 3e
       0.096102096 -0.064325415 -0.034621533 0.13615318
000140 2c 4c d5 3d 99 cc d9 bc db ca 68 3d 04 dc 00 3c
       0.10414919 -0.026586818 0.056834083 0.007864956
000150 57 51 ab bd c4 5e b1 bd 58 0f 04 3e db e9 85 bd
       -0.08365124 -0.08660653 0.12896478 -0.06538745
000160 4b 8b 1c 3c f2 1b db bc 19 45 87 3d 4c 77 c5 3d
       0.009554694 -0.026746724 0.06604976 0.09641895
000170 f2 52 87 3d a3 83 46 3d d8 a9 3a bd 9c f5 4e ba
       0.066076174 0.048465382 -0.045572132 -0.0007894875
000180 37 b9 67 3d ca 54 9a bd 0f 67 9c bd 02 e5 45 3d
       0.05657312 -0.075357035 -0.07636844 0.048314102
000190 ed 9f c5 3d c1 c1 ef bd 64 dc 14 3e d5 5f b5 3d
       0.09649644 -0.117068775 0.14537197 0.08856169
0001a0 8e b0 b1 bd a8 64 f2 bc 4b 70 db bd 75 75 1a bd
       -0.08676253 -0.029589012 -0.107147776 -0.037709672
0001b0 e0 5e b2 3d b5 25 be 3c 72 c9 21 bd f2 b3 b1 bd
       0.08709502 0.02321134 -0.039498754 -0.086769
0001c0 32 96 a3 bd 59 d3 9b bd 44 b2 60 bc b2 64 05 be
       -0.07987632 -0.07608671 -0.013714377 -0.13026693
0001d0 89 8b 15 bd 86 31 e5 3d ec cf d1 3d f3 05 fe bd
       -0.036510024 0.111910865 0.10244736 -0.124034785
0001e0 af fc 4a bc f8 07 b8 bd c6 27 d9 3d 3c 20 5a 3d
       -0.012389346 -0.08985895 0.10603289 0.053253397
0001f0 c6 d6 81 3c ad e4 69 3d 57 57 90 3d 1f df 75 3d
       0.015849482 0.057102848 0.07047909 0.060027238
000200 49 4a a3 bc 7e 07 c5 3d 02 4f f9 3d b2 3b d3 3d
       -0.019932883 0.0962057 0.12173273 0.1031412
000210 38 5e 57 3d d4 fd 12 be 6a 32 87 3d d8 81 2f be
       0.05258009 -0.1435464 0.066014126 -0.17139375
000220 24 47 8e 3d e5 f6 b6 bd 1f 51 ca bd 79 35 81 bc
       0.06947163 -0.0893381 -0.09878754 -0.015772568
000230 f5 a2 50 bd 8e ea 51 bd d9 6b 1d be c8 b0 d4 bd
       -0.050936658 -0.05124908 -0.15373172 -0.10385281
000240 90 82 93 3d 9a d5 42 bd a2 b5 89 bd 9d aa 2b bc
       0.07202637 -0.047566988 -0.06724097 -0.010477689
000250 c4 a4 fd 3d 66 ce 8e bd e9 eb 9e bc f4 9f aa 3d
       0.12384942 -0.06972961 -0.0193996 0.0833129
000260 28 36 bf 3d c4 9f 9b bd c8 80 ba bd 0b 46 77 bd
       0.09336501 -0.07598832 -0.09106594 -0.060369533
000270 44 bf 8d bd ee 2d bc 3d f1 18 0a bd aa 95 8f 3d
       -0.06921247 0.09188448 -0.033715192 0.07010968
000280 47 20 2e bc 27 23 22 3e 7c e0 a4 bd b5 91 0f 3e
       -0.010627813 0.15833722 -0.080506295 0.14020427
000290 f4 a0 da 3d 03 d4 c9 bd fa 9f b8 3d 9f bc 73 bd
       0.106752306 -0.09854891 0.09014888 -0.059506055
0002a0 96 7a 52 3d 35 f0 45 3d c2 43 0c be 6c 53 ce bd
       0.05138644 0.048324782 -0.13697723 -0.10074505
0002b0 6f 77 3a be e2 33 1e 3d 26 c1 1f be 98 0c c8 3c
       -0.18209623 0.038623698 -0.15601024 0.024420068
0002c0 6d e0 f8 bb 66 03 0e 3d 6e 1e 1e bc 2c a6 05 be
       -0.007595113 0.03467121 -0.00965081 -0.13051671
0002d0 93 34 1e be 06 6f 27 3e cb 93 0e be f0 7f 16 3d
       -0.15449743 0.16350946 -0.13923566 0.036743104
0002e0 94 2c 62 3e fe 7a 0e be c6 22 e9 bd ea 6f 7c bd
       0.22087318 -0.13914105 -0.11383586 -0.061630167
0002f0 52 cb 16 be 1a 67 01 3e 7a 01 9f 3c 27 66 cc 3d
       -0.14725998 0.12636986 0.019409884 0.099804215

fc2.bias f4 [3]
000000 f1 da a1 3d 29 0e 31 3c 83 18 bd bd
       0.07903088 0.010806599 -0.09233191
