testdata/iris_nn_small.onnx (onnx, 605 bytes, 4 tensors)

fc1.weight f4 [6, 4]
0	0x3e8b941f	0.27261445
1	0x3e34c3ec	0.17652863
2	0xbe6394f6	-0.22224793
3	0x3ecc1a31	0.39863732
4	0xbf0b8b0d	-0.5450905
5	0x3ad151fe	0.001596987
6	0x3e10a046	0.1412364
7	0x3f02e471	0.51129824
8	0xbe00de29	-0.12584747
9	0x3e458b06	0.19291314
10	0xbf2f4caf	-0.68476385
11	0xbdc56aef	-0.096395366
12	0x3e02f7b7	0.12789808
13	0xbf08c050	-0.53418446
14	0x3e06dadf	0.1316943
15	0x3d76f410	0.06029135
16	0x3eb8ce62	0.36094958
17	0xbc3da4bc	-0.01157492
18	0x3ebdc6c0	0.37065697
19	0xbefd45f7	-0.4946744
20	0x3e88262d	0.26591626
21	0x3ec0ce13	0.37657222
22	0xbe1f5b53	-0.15562181
23	0x3e206187	0.15662204

fc1.bias f4 [6]
0	0x3ea2add2	0.3177324
1	0x3e8cf898	0.27533412
2	0x3ea91372	0.33022648
3	0xbd871f87	-0.0659781
4	0xbe858724	-0.26079667
5	0xbef4a762	-0.47783953

fc2.weight f4 [3, 6]
0	0x3e8cde23	0.27513227
1	0xbe9355e2	-0.2877646
2	0x3f19bec2	0.600567
3	0xbebbf2ab	-0.36708578
4	0xbde4835e	-0.11157869
5	0x3d9d9f0d	0.07696352
6	0x3d710f36	0.058852397
7	0xb998aad7	-0.00029118985
8	0x3c4c2f4f	0.012462451
9	0x3dd84d98	0.10561675
10	0x3e8bfd7d	0.27341834
11	0xbee59646	-0.44841212
12	0x3d91fcd1	0.07128299
13	0x3e9f71f8	0.3114164
14	0xbe470a9c	-0.19437641
15	0x3e0a674f	0.13515972
16	0x3b1785ff	0.002312064
17	0x3dd9bd8e	0.10631858

fc2.bias f4 [3]
0	0x3dace6c0	0.084424496
1	0x3ddf35b3	0.10898914
2	0x3c76649e	0.015038637
