testdata/iris_nn.onnx (onnx, 2514 bytes, 4 tensors)

fc1.weight f4 [64, 4]
0.43290013 0.34728038 -0.031834 0.4287639 0.2406462 -0.3025834 -0.25985375 0.0046736393
-0.28050408 -0.041244123 0.29863706 0.26568592 -0.4140836 0.3916239 -0.068730235 -0.24710947
0.10759529 0.45908797 -0.13521981 0.39471063 0.30718243 -0.16234462 -0.03276629 -0.42655593
-0.04228878 -0.21258926 -0.34911543 0.008449554 0.32914403 -0.17218229 0.2916747 -0.35650784
-0.062324964 0.011406739 -0.042278457 0.24167374 -0.34773898 -0.20945537 -0.065041184 -0.16229439
-0.40576142 -0.23361892 -0.29157382 0.4027518 -0.32445848 -0.45626312 -0.22882652 -0.09416509
0.41825134 0.10042041 -0.26825 -0.43892074 0.3854297 0.047313333 0.315197 -0.105524465
0.562247 -0.24076195 -0.38178337 -0.47831526 0.20532623 0.06492507 -0.30135846 0.38554272
0.4062539 0.12200182 -0.4766508 0.21732254 0.45708382 0.020154908 0.34798783 -0.45153964
-0.48244566 -0.09307635 -0.4306575 0.046132386 -0.033514023 -0.2322073 -0.37118703 -0.16675133
0.14882617 -0.08042311 -0.16732569 0.0049582087 -0.17097539 -0.14715356 0.15401721 0.06288737
0.4204148 0.47842547 -0.29463133 -0.30906096 0.19241382 -0.44272637 0.24029517 -0.34159654
0.39121526 0.20369422 -0.027105106 0.40559524 0.32932648 0.22320934 -0.095419094 -0.20410082
-0.024062539 0.13945785 0.03279158 0.022583412 -0.2676105 -0.48617995 -0.23299003 0.100641906
-0.20945995 0.35133052 0.21279024 -0.25777158 0.046755277 -0.43085733 0.19507214 -0.051906582
-0.04444214 -0.07412685 0.4631597 0.23419145 0.3515171 0.20572002 -0.45208585 -0.27172875
0.1926126 0.5827329 -0.4238473 -0.21911784 -0.18438374 0.1863729 0.12281909 -0.26091936
0.26089358 0.24836639 -0.14042298 -0.41623917 -0.049187534 0.12959287 0.0073693423 -0.25128773
0.18135586 -0.12548128 -0.34973645 -0.028551407 0.069515064 -0.058385924 -0.09607055 -0.008378383
0.50217146 -0.16975453 0.31546083 -0.25680032 0.010800958 -0.4206305 -0.2733549 0.21348542
0.43722835 -0.39081278 -0.2579524 -0.29213333 -0.2234757 -0.45806956 0.174268 0.1772905
0.061764363 -0.31067377 0.46859318 -0.036441445 0.07481378 -0.11368215 -0.19436616 0.31063902
0.14942914 -0.12104303 -0.30292857 0.22234023 0.15539682 0.035419263 -0.31234366 -0.27242985
-0.38077515 -0.24051028 0.030272782 -0.26005495 0.20810382 0.18465051 0.48858276 0.056495972
-0.30368254 0.48176864 -0.31359428 -0.22638981 0.21668892 0.3169382 -0.23796594 0.4512577
0.09249352 0.20189008 0.28815988 0.4962541 0.01949921 -0.4084081 0.2670739 0.12453096
0.3113682 0.1244128 0.3886227 -0.16836514 0.23539995 -0.34076914 0.15955594 0.5261668
0.32329243 0.44725174 0.08060638 -0.36912137 -0.2454415 -0.09673214 -0.22741747 0.07646048
0.27845755 0.24172257 0.076917015 0.14109893 0.38826177 0.15395933 0.5157209 0.51164776
0.2940259 0.17548318 0.39930707 0.045196448 0.46769363 -0.25898913 0.31120002 0.37117758
-0.16494644 -0.25614607 -0.0063068867 -0.33879846 -0.19548012 -0.3176563 0.37635273 0.30710876
0.48777932 0.059465274 -0.49130076 0.17741705 -0.10841751 -0.31441844 0.27531952 -0.13457501
00000000: 16a5 dd3e bcce b13e 5e64 02bd f186 db3e
00000010: f56b 763e 36ec 9abe 8d0b 85be 5425 993b
00000020: 3b9e 8fbe 99ef 28bd f5e6 983e fc07 883e
00000030: c402 d4be ee82 c83e 70c2 8cbd 440a 7dbe
00000040: eb5a dc3d 940d eb3e 1077 0abe 8317 ca3e
00000050: 0447 9d3e ab3d 26be f235 06bd 8a65 dabe
00000060: 0037 2dbd 00b1 59be 42bf b2be 0070 0a3c
00000070: 9185 a83e 8e50 30be 6356 953e 3288 b6be
00000080: 7648 7fbd 55e3 3a3c 2d2c 2dbd 5279 773e
00000090: d80a b2be 787b 56be 5034 85bd 8030 26be
000000a0: f6bf cfbe cc39 6fbe 2a49 95be 7c35 ce3e
000000b0: 6c1f a6be 529b e9be 8051 6abe a0d9 c0bd
000000c0: 0a25 d63e 37a9 cd3d 1058 89be 38ba e0be
000000d0: 0b57 c53e a0cb 413d 8061 a13e 361d d8bd
000000e0: 6bef 0f3f 4d8a 76be 1c79 c3be bde5 f4be
000000f0: 0a41 523e 6ff7 843d a84b 9abe db65 c53e
00000100: 8300 d03e 17dc f93d 930b f4be cd89 5e3e
00000110: e406 ea3e e81b a53c 762b b23e 3430 e7be
00000120: 1e03 f7be d09e bebd 247f dcbe 50f5 3c3d
00000130: 0046 09bd c0c7 6dbe 3a0c bebe dcc0 2abe
00000140: e365 183e dfb4 a4bd 6d57 2bbe 7878 a23b
00000150: 2c14 2fbe 6caf 16be b0b6 1d3e 18cb 803d
00000160: 9c40 d73e 2ff4 f43e ebd9 96be 3d3d 9ebe
00000170: 2108 453e 08ad e2be f00f 763e bee5 aebe
00000180: 5e4d c83e 3895 503e 870b debc 2eaa cf3e
00000190: 7b9d a83e fd90 643e 166b c3bd ceff 50be
000001a0: cd1e c5bc 0ace 0e3e 7750 063d d900 b93c
000001b0: 3e04 89be 94ec f8be f094 6ebe 581d ce3d
000001c0: ab7c 56be 98e1 b33e afe5 593e a3fa 83be
000001d0: 7682 3f3d 5599 dcbe fec0 473e ff9b 54bd
000001e0: f608 36bd d1cf 97bd 4523 ed3e e2cf 6f3e
000001f0: 0dfa b33e 45a8 523e cc77 e7be 0820 8bbe
00000200: 3d3c 453e fc2d 153f 8302 d9be 6d60 60be
00000210: 17cf 3cbe 8ad8 3e3e 9388 fb3d 3997 85be
00000220: d893 853e c253 7e3e 0bcb 0fbe 4d1d d5be
00000230: de78 49bd feb3 043e 867a f13b c9a8 80be
00000240: 5ab5 393e 2a7e 00be a810 b3be a4e4 e9bc
00000250: ea5d 8e3d 1426 6fbd a3c0 c4bd 7c45 09bc
00000260: 4f8e 003f 22d4 2dbe 1584 a13e 557b 83be
00000270: 80f6 303c e25c d7be 2cf5 8bbe ec9b 5a3e
00000280: 65dc df3e 9d18 c8be 5612 84be 8092 95be
00000290: d0d6 64be 1888 eabe 5073 323e a48b 353e
000002a0: a1fc 7c3d a210 9fbe 72eb ef3e a043 15bd
000002b0: f837 993d 30d2 e8bd ec07 47be 140c 9f3e
000002c0: f403 193e 68e5 f7bd 7419 9bbe 28ad 633e
000002d0: 5820 1f3e ca13 113d 82eb 9fbe ed7b 8bbe
000002e0: f6f4 c2be 5448 76be a0fe f73c ec25 85be
000002f0: 2b19 553e 0615 3d3e 8527 fa3e 5268 673d
00000300: 477c 9bbe 61aa f63e 6e8f a0be bbd2 67be
00000310: b3e3 5d3e b945 a23e 58ad 73be 400b e73e
00000320: 3e6d bd3d 46bc 4e3e b189 933e 0415 fe3e
00000330: cfbc 9f3c de1a d1be e9bd 883e 170a ff3d
00000340: a76b 9f3e 23cc fe3d 8ef9 c63e e967 2cbe
00000350: af0c 713e 4b79 aebe a262 233e deb2 063f
00000360: 9686 a53e 2efe e43e f514 a53d 7afd bcbe
00000370: 0455 7bbe 801b c6bd 20e0 68be 5097 9c3d
00000380: fd91 8e3e 1f86 773e ab86 9d3d 3d7c 103e
00000390: 3fca c63e 84a7 1d3e 4906 043f 59fb 023f
000003a0: 908a 963e ddb1 333e fa71 cc3e e91f 393d
000003b0: 8a75 ef3e 399a 84be 9c55 9f3e fd0a be3e
000003c0: b8e7 28be 9425 83be 00aa cebb fe76 adbe
000003d0: f12b 48be d9a3 a2be 4eb1 c03e 5c3d 9d3e
000003e0: 36be f93e dc91 733d c68b fbbe d1ac 353e
000003f0: 000a debd 74fb a0be aef6 8c3e 08ce 09be

fc1.bias f4 [64]
-0.281295 0.09447857 0.42886978 0.098366976 -0.4701824 0.09407621 0.035604358 -0.3346212
-0.027893439 0.0864535 0.33232546 -0.034647763 0.44802132 0.30551946 0.49487114 0.20663382
0.3311251 0.30095965 -0.3937496 -0.37588304 0.38766944 -0.49466366 -0.4864785 -0.19465077
0.060738146 -0.41109517 -0.2210047 -0.35737365 0.45709896 -0.3108884 -0.4508462 -0.471396
-6.271815e-05 0.29492754 -0.44309926 -0.21567798 0.40230346 0.11647245 0.14390466 0.11413556
-0.47647947 0.024211228 0.15767257 -0.4160002 -0.32314003 -0.47157186 0.11273134 -0.40930164
0.2025954 -0.066938534 -0.025525803 0.19689451 -0.43254673 -0.35082877 -0.40655565 -0.4822774
-0.45076093 -0.3461924 -0.45346656 -0.040623955 -0.30191272 0.10633183 -0.3171319 -0.42938846
00000000: e605 90be fb7d c13d d294 db3e a074 c93d
00000010: bfbb f0be 07ab c03d e0d5 113d 7853 abbe
00000020: c880 e4bc 880e b13d 9026 aa3e d0ea 0dbd
00000030: 0d63 e53e 0c6d 9c3e c05f fd3e d197 533e
00000040: 3b89 a93e 6217 9a3e 8c99 c9be be73 c0be
00000050: 9c7c c63e 8e44 fdbe b613 f9be 8852 47be
00000060: 90c8 783d 117b d2be 0e4f 62be aef9 b6be
00000070: e008 ea3e c42c 9fbe 50d5 e6be d15a f1be
00000080: 8d87 83b8 be00 973e e8dd e2be b0da 5cbe
00000090: b8fa cd3e 1c89 ee3d be5b 133e e8bf e93d
000000a0: 1ef5 f3be a056 c63c eb74 213e fafd d4be
000000b0: 9c72 a5be de71 f1be b0df e63d fc8f d1be
000000c0: 2b75 4f3e 1217 89bd 7d1b d1bc b79e 493e
000000d0: c476 ddbe d49f b3be 1028 d0be 10ed f6be
000000e0: 23ca e6be 2140 b1be c52c e8be 4e65 26bd
000000f0: 4e94 9abe 81c4 d93d 1d5f a2be ced8 dbbe

fc2.weight f4 [3, 64]
0.020170923 -0.026192548 -0.022967877 -0.054407865 -0.042689804 0.02317489 -0.11462541 -0.118542016
0.08109433 0.11458309 -0.013366222 -0.0015259981 0.11931306 0.04089002 0.14165306 -0.013149129
0.06670228 0.037429743 0.08652997 -0.0020457804 0.03392512 -0.042815283 0.28525114 -0.13280588
-0.07817605 0.008546065 0.060116716 -0.00041128695 0.08697305 0.017364683 -0.12598054 0.15235175
0.33883908 0.08075001 0.14029692 -0.04265328 0.14495774 0.071272954 0.034299724 0.04345873
-0.04906277 0.100988224 -0.12471154 0.08572833 0.09191017 -0.11761634 0.08162744 -0.06995164
-0.06396489 0.17712429 -0.15552126 -0.05883775 -0.09705881 -0.15268676 0.14348912 -0.03405723
0.06310549 -0.14402488 -0.030295989 -0.08664984 -0.1204994 0.059620418 0.22894694 0.078553766
0.048740435 -0.03633907 -0.11865955 -0.0766844 0.03328241 0.12176455 -0.11175127 0.16112931
0.049653545 -0.019928813 -0.09465127 0.0678314 -0.025072588 0.048219983 0.0974475 0.082515836
-0.08931204 0.060475744 -0.08481984 0.12225388 0.08530543 -0.10053587 0.045438357 -0.09539783
-0.012926964 -0.14739767 -0.08776214 0.040254638 0.035152867 -0.03497007 0.07086857 -0.194843
0.017868252 0.07618421 -0.044067796 0.036671013 0.084651895 0.006977464 0.108775966 0.006329164
0.04044768 0.024810195 0.16622472 0.07572994 -0.058917567 -0.08773092 -0.03101042 -0.09537522
-0.011426031 -0.074874766 0.11991497 -0.071443684 -0.018065684 0.05286059 -0.047894496 -0.050502628
0.09327291 0.047615167 -0.01888439 -0.060174856 0.07287674 -0.09615078 -0.09364214 -0.111007825
0.041543 0.042491715 0.11106153 -0.12206891 -0.041189704 -0.13553756 0.07844272 0.09522927
-0.06383078 -0.093551084 -0.034277886 -0.043906897 -0.21380599 -0.0015992858 -0.18321328 -0.008469908
-0.09927559 -0.034432095 0.029529616 -0.016681343 -0.035930566 0.08975579 -0.22365236 0.05565641
-0.10176575 0.021375198 -0.09704498 -0.059228987 -0.07683745 -0.10967977 0.029826319 0.067244664
-0.17381848 -0.02558295 -0.03534401 -0.06346387 0.0708118 0.11142191 -0.06737804 -0.11194642
-0.011002772 0.010756448 0.22691612 0.08668797 0.107300505 0.034546014 -0.037703127 0.07364406
-0.02231842 0.06511717 0.15900274 0.14333759 0.13701496 0.21088561 -0.19793648 -0.028266996
-0.01935443 0.16801858 -0.029695489 0.1567004 -0.065505 0.013023941 0.0023946709 0.039308265
00000000: 7e3d a53c c191 d6bc 2127 bcbc c8da 5ebd
00000010: 81db 2ebd 44d9 bd3c bac0 eabd 28c6 f2bd
00000020: c914 a63d 8aaa ea3d 00fe 5abc 0004 c8ba
00000030: 685a f43d 4b7c 273d 800d 113e 726f 57bc
00000040: 349b 883d ee4f 193d a036 b13d 8012 06bb
00000050: 11f5 0a3d 145f 2fbd 700c 923e 44fe 07be
00000060: c41a a0bd cb04 0c3c f23c 763d 00a2 d7b9
00000070: ed1e b23d 6140 8e3c 0b01 01be 1902 1c3e
00000080: 517c ad3e 4360 a53d ffa9 0f3e 35b5 2ebd
00000090: cd6f 143e 8ef7 913d de7d 0c3d c801 323d
000000a0: 0bf6 48bd ead2 ce3d c468 ffbd 5692 af3d
000000b0: 663b bc3d d6e0 f0bd 4a2c a73d ce42 8fbd
000000c0: 0600 83bd 1260 353e f740 1fbe daff 70bd
000000d0: c5c6 c6bd eb59 1cbe d0ee 123e 987f 0bbd
000000e0: 733d 813d 427b 13be 4b2f f8bc 7975 b1bd
000000f0: 64c8 f6bd 8a34 743d 1171 6a3e cce0 a03d
00000100: 0da4 473d 47d8 14bd c703 f3bd b60c 9dbd
00000110: 2353 083d b15f f93d dadd e4bd 15ff 243e
00000120: 8461 4b3d c041 a3bc 86d8 c1bd 30eb 8a3d
00000130: 0765 cdbc 5182 453d 8e92 c73d 10fe a83d
00000140: 3be9 b6bd 6ab5 773d 06b6 adbd 3e60 fa3d
00000150: 9db4 ae3d c0e5 cdbd 921d 3a3d f05f c3bd
00000160: 9ecb 53bc 6aef 16be a3bc b3bd 0ce2 243d
00000170: 74fc 0f3d c73c 0fbd 8a23 913d ec84 47be
00000180: 7160 923c 7806 9c3d 6f80 34bd 5834 163d
00000190: f95d ad3d 36a3 e43b efc5 de3d e064 cf3b
000001a0: 77ac 253d c03e cb3c d036 2a3e 4c18 9b3d
000001b0: 8c53 71bd 45ac b3bd 9009 febc 1554 c3bd
000001c0: 3f34 3bbc f157 99bd fb95 f53d 1151 92bd
000001d0: 7cfe 93bc 5984 583d 052d 44bd d8db 4ebd
000001e0: de05 bf3d 1f08 433d 70b3 9abc e979 76bd
000001f0: 6640 953d b3ea c4bd 73c7 bfbd 1258 e3bd
00000200: fe28 2a3d cb0b 2e3d 3a74 e33d 44ff f9bd
00000210: 89b6 28bd 5cca 0abe 94a6 a03d 9007 c33d
00000220: b6b9 82bd b697 bfbd f866 0cbd b8d7 33bd
00000230: f5ef 5abe 209f d1ba 439c 3bbe 5ec5 0abc
00000240: 0051 cbbd ab08 0dbd 18e8 f13c 50a7 88bc
00000250: ee2b 13bd e2d1 b73d 2005 65be faf7 633d
00000260: 906a d0bd 0a1b af3c 85bf c6bd 189a 72bd
00000270: f45c 9dbd ca9f e0bd 5356 f43c 92b7 893d
00000280: 79fd 31be 5693 d1bc e1c4 10bd 58f9 81bd
00000290: c705 913d 2c31 e43d 7ffd 89bd 2a44 e5bd
000002a0: f844 34bc d03b 303c b35c 683e 7689 b13d
000002b0: 5ec0 db3d 1f80 0d3d 986e 1abd b2d2 963d
000002c0: 1ed5 b6bc 275c 853d 9dd1 223e 17c7 123e
000002d0: a64d 0c3e 66f2 573e dcaf 4abe 3090 e7bc
000002e0: 2e8d 9ebc 100d 2c3e f443 f3bc 1276 203e
000002f0: 7c27 86bd 5e62 553c e9ef 1c3b b401 213d

fc2.bias f4 [3]
-0.040684678 -0.039792754 -0.025053708
00000000: faa4 26bd bafd 22bd 6f3d cdbc
